…
 . mobile = tf.keras.applications.mobilenet.MobileNet() . Downloading data from https://storage.googleapis.com/tensorflow/keras-applications/mobilenet/mobilenet_1_0_224_tf.h5 17227776/17225924 [==============================] - 0s 0us/step . mobile.summary() . Model: &#34;mobilenet_1.00_224&#34; _________________________________________________________________ Layer (type) Output Shape Param # ================================================================= input_1 (InputLayer) [(None, 224, 224, 3)] 0 _________________________________________________________________ conv1_pad (ZeroPadding2D) (None, 225, 225, 3) 0 _________________________________________________________________ conv1 (Conv2D) (None, 112, 112, 32) 864 _________________________________________________________________ conv1_bn (BatchNormalization (None, 112, 112, 32) 128 _________________________________________________________________ conv1_relu (ReLU) (None, 112, 112, 32) 0 _________________________________________________________________ conv_dw_1 (DepthwiseConv2D) (None, 112, 112, 32) 288 _________________________________________________________________ conv_dw_1_bn (BatchNormaliza (None, 112, 112, 32) 128 _________________________________________________________________ conv_dw_1_relu (ReLU) (None, 112, 112, 32) 0 _________________________________________________________________ conv_pw_1 (Conv2D) (None, 112, 112, 64) 2048 _________________________________________________________________ conv_pw_1_bn (BatchNormaliza (None, 112, 112, 64) 256 _________________________________________________________________ conv_pw_1_relu (ReLU) (None, 112, 112, 64) 0 _________________________________________________________________ conv_pad_2 (ZeroPadding2D) (None, 113, 113, 64) 0 _________________________________________________________________ conv_dw_2 (DepthwiseConv2D) (None, 56, 56, 64) 576 _________________________________________________________________ conv_dw_2_bn (BatchNormaliza (None, 56, 56, 64) 256 _________________________________________________________________ conv_dw_2_relu (ReLU) (None, 56, 56, 64) 0 _________________________________________________________________ conv_pw_2 (Conv2D) (None, 56, 56, 128) 8192 _________________________________________________________________ conv_pw_2_bn (BatchNormaliza (None, 56, 56, 128) 512 _________________________________________________________________ conv_pw_2_relu (ReLU) (None, 56, 56, 128) 0 _________________________________________________________________ conv_dw_3 (DepthwiseConv2D) (None, 56, 56, 128) 1152 _________________________________________________________________ conv_dw_3_bn (BatchNormaliza (None, 56, 56, 128) 512 _________________________________________________________________ conv_dw_3_relu (ReLU) (None, 56, 56, 128) 0 _________________________________________________________________ conv_pw_3 (Conv2D) (None, 56, 56, 128) 16384 _________________________________________________________________ conv_pw_3_bn (BatchNormaliza (None, 56, 56, 128) 512 _________________________________________________________________ conv_pw_3_relu (ReLU) (None, 56, 56, 128) 0 _________________________________________________________________ conv_pad_4 (ZeroPadding2D) (None, 57, 57, 128) 0 _________________________________________________________________ conv_dw_4 (DepthwiseConv2D) (None, 28, 28, 128) 1152 _________________________________________________________________ conv_dw_4_bn (BatchNormaliza (None, 28, 28, 128) 512 _________________________________________________________________ conv_dw_4_relu (ReLU) (None, 28, 28, 128) 0 _________________________________________________________________ conv_pw_4 (Conv2D) (None, 28, 28, 256) 32768 _________________________________________________________________ conv_pw_4_bn (BatchNormaliza (None, 28, 28, 256) 1024 _________________________________________________________________ conv_pw_4_relu (ReLU) (None, 28, 28, 256) 0 _________________________________________________________________ conv_dw_5 (DepthwiseConv2D) (None, 28, 28, 256) 2304 _________________________________________________________________ conv_dw_5_bn (BatchNormaliza (None, 28, 28, 256) 1024 _________________________________________________________________ conv_dw_5_relu (ReLU) (None, 28, 28, 256) 0 _________________________________________________________________ conv_pw_5 (Conv2D) (None, 28, 28, 256) 65536 _________________________________________________________________ conv_pw_5_bn (BatchNormaliza (None, 28, 28, 256) 1024 _________________________________________________________________ conv_pw_5_relu (ReLU) (None, 28, 28, 256) 0 _________________________________________________________________ conv_pad_6 (ZeroPadding2D) (None, 29, 29, 256) 0 _________________________________________________________________ conv_dw_6 (DepthwiseConv2D) (None, 14, 14, 256) 2304 _________________________________________________________________ conv_dw_6_bn (BatchNormaliza (None, 14, 14, 256) 1024 _________________________________________________________________ conv_dw_6_relu (ReLU) (None, 14, 14, 256) 0 _________________________________________________________________ conv_pw_6 (Conv2D) (None, 14, 14, 512) 131072 _________________________________________________________________ conv_pw_6_bn (BatchNormaliza (None, 14, 14, 512) 2048 _________________________________________________________________ conv_pw_6_relu (ReLU) (None, 14, 14, 512) 0 _________________________________________________________________ conv_dw_7 (DepthwiseConv2D) (None, 14, 14, 512) 4608 _________________________________________________________________ conv_dw_7_bn (BatchNormaliza (None, 14, 14, 512) 2048 _________________________________________________________________ conv_dw_7_relu (ReLU) (None, 14, 14, 512) 0 _________________________________________________________________ conv_pw_7 (Conv2D) (None, 14, 14, 512) 262144 _________________________________________________________________ conv_pw_7_bn (BatchNormaliza (None, 14, 14, 512) 2048 _________________________________________________________________ conv_pw_7_relu (ReLU) (None, 14, 14, 512) 0 _________________________________________________________________ conv_dw_8 (DepthwiseConv2D) (None, 14, 14, 512) 4608 _________________________________________________________________ conv_dw_8_bn (BatchNormaliza (None, 14, 14, 512) 2048 _________________________________________________________________ conv_dw_8_relu (ReLU) (None, 14, 14, 512) 0 _________________________________________________________________ conv_pw_8 (Conv2D) (None, 14, 14, 512) 262144 _________________________________________________________________ conv_pw_8_bn (BatchNormaliza (None, 14, 14, 512) 2048 _________________________________________________________________ conv_pw_8_relu (ReLU) (None, 14, 14, 512) 0 _________________________________________________________________ conv_dw_9 (DepthwiseConv2D) (None, 14, 14, 512) 4608 _________________________________________________________________ conv_dw_9_bn (BatchNormaliza (None, 14, 14, 512) 2048 _________________________________________________________________ conv_dw_9_relu (ReLU) (None, 14, 14, 512) 0 _________________________________________________________________ conv_pw_9 (Conv2D) (None, 14, 14, 512) 262144 _________________________________________________________________ conv_pw_9_bn (BatchNormaliza (None, 14, 14, 512) 2048 _________________________________________________________________ conv_pw_9_relu (ReLU) (None, 14, 14, 512) 0 _________________________________________________________________ conv_dw_10 (DepthwiseConv2D) (None, 14, 14, 512) 4608 _________________________________________________________________ conv_dw_10_bn (BatchNormaliz (None, 14, 14, 512) 2048 _________________________________________________________________ conv_dw_10_relu (ReLU) (None, 14, 14, 512) 0 _________________________________________________________________ conv_pw_10 (Conv2D) (None, 14, 14, 512) 262144 _________________________________________________________________ conv_pw_10_bn (BatchNormaliz (None, 14, 14, 512) 2048 _________________________________________________________________ conv_pw_10_relu (ReLU) (None, 14, 14, 512) 0 _________________________________________________________________ conv_dw_11 (DepthwiseConv2D) (None, 14, 14, 512) 4608 _________________________________________________________________ conv_dw_11_bn (BatchNormaliz (None, 14, 14, 512) 2048 _________________________________________________________________ conv_dw_11_relu (ReLU) (None, 14, 14, 512) 0 _________________________________________________________________ conv_pw_11 (Conv2D) (None, 14, 14, 512) 262144 _________________________________________________________________ conv_pw_11_bn (BatchNormaliz (None, 14, 14, 512) 2048 _________________________________________________________________ conv_pw_11_relu (ReLU) (None, 14, 14, 512) 0 _________________________________________________________________ conv_pad_12 (ZeroPadding2D) (None, 15, 15, 512) 0 _________________________________________________________________ conv_dw_12 (DepthwiseConv2D) (None, 7, 7, 512) 4608 _________________________________________________________________ conv_dw_12_bn (BatchNormaliz (None, 7, 7, 512) 2048 _________________________________________________________________ conv_dw_12_relu (ReLU) (None, 7, 7, 512) 0 _________________________________________________________________ conv_pw_12 (Conv2D) (None, 7, 7, 1024) 524288 _________________________________________________________________ conv_pw_12_bn (BatchNormaliz (None, 7, 7, 1024) 4096 _________________________________________________________________ conv_pw_12_relu (ReLU) (None, 7, 7, 1024) 0 _________________________________________________________________ conv_dw_13 (DepthwiseConv2D) (None, 7, 7, 1024) 9216 _________________________________________________________________ conv_dw_13_bn (BatchNormaliz (None, 7, 7, 1024) 4096 _________________________________________________________________ conv_dw_13_relu (ReLU) (None, 7, 7, 1024) 0 _________________________________________________________________ conv_pw_13 (Conv2D) (None, 7, 7, 1024) 1048576 _________________________________________________________________ conv_pw_13_bn (BatchNormaliz (None, 7, 7, 1024) 4096 _________________________________________________________________ conv_pw_13_relu (ReLU) (None, 7, 7, 1024) 0 _________________________________________________________________ global_average_pooling2d (Gl (None, 1024) 0 _________________________________________________________________ reshape_1 (Reshape) (None, 1, 1, 1024) 0 _________________________________________________________________ dropout (Dropout) (None, 1, 1, 1024) 0 _________________________________________________________________ conv_preds (Conv2D) (None, 1, 1, 1000) 1025000 _________________________________________________________________ reshape_2 (Reshape) (None, 1000) 0 _________________________________________________________________ predictions (Activation) (None, 1000) 0 ================================================================= Total params: 4,253,864 Trainable params: 4,231,976 Non-trainable params: 21,888 _________________________________________________________________ . x = mobile.layers[-6].output predictions = Dense(10, activation=&#39;softmax&#39;)(x) . model = Model(inputs=mobile.input, outputs=predictions) . for layer in model.layers[:-23]: layer.trainable = False . model.summary() . Model: &#34;functional_1&#34; _________________________________________________________________ Layer (type) Output Shape Param # ================================================================= input_1 (InputLayer) [(None, 224, 224, 3)] 0 _________________________________________________________________ conv1_pad (ZeroPadding2D) (None, 225, 225, 3) 0 _________________________________________________________________ conv1 (Conv2D) (None, 112, 112, 32) 864 _________________________________________________________________ conv1_bn (BatchNormalization (None, 112, 112, 32) 128 _________________________________________________________________ conv1_relu (ReLU) (None, 112, 112, 32) 0 _________________________________________________________________ conv_dw_1 (DepthwiseConv2D) (None, 112, 112, 32) 288 _________________________________________________________________ conv_dw_1_bn (BatchNormaliza (None, 112, 112, 32) 128 _________________________________________________________________ conv_dw_1_relu (ReLU) (None, 112, 112, 32) 0 _________________________________________________________________ conv_pw_1 (Conv2D) (None, 112, 112, 64) 2048 _________________________________________________________________ conv_pw_1_bn (BatchNormaliza (None, 112, 112, 64) 256 _________________________________________________________________ conv_pw_1_relu (ReLU) (None, 112, 112, 64) 0 _________________________________________________________________ conv_pad_2 (ZeroPadding2D) (None, 113, 113, 64) 0 _________________________________________________________________ conv_dw_2 (DepthwiseConv2D) (None, 56, 56, 64) 576 _________________________________________________________________ conv_dw_2_bn (BatchNormaliza (None, 56, 56, 64) 256 _________________________________________________________________ conv_dw_2_relu (ReLU) (None, 56, 56, 64) 0 _________________________________________________________________ conv_pw_2 (Conv2D) (None, 56, 56, 128) 8192 _________________________________________________________________ conv_pw_2_bn (BatchNormaliza (None, 56, 56, 128) 512 _________________________________________________________________ conv_pw_2_relu (ReLU) (None, 56, 56, 128) 0 _________________________________________________________________ conv_dw_3 (DepthwiseConv2D) (None, 56, 56, 128) 1152 _________________________________________________________________ conv_dw_3_bn (BatchNormaliza (None, 56, 56, 128) 512 _________________________________________________________________ conv_dw_3_relu (ReLU) (None, 56, 56, 128) 0 _________________________________________________________________ conv_pw_3 (Conv2D) (None, 56, 56, 128) 16384 _________________________________________________________________ conv_pw_3_bn (BatchNormaliza (None, 56, 56, 128) 512 _________________________________________________________________ conv_pw_3_relu (ReLU) (None, 56, 56, 128) 0 _________________________________________________________________ conv_pad_4 (ZeroPadding2D) (None, 57, 57, 128) 0 _________________________________________________________________ conv_dw_4 (DepthwiseConv2D) (None, 28, 28, 128) 1152 _________________________________________________________________ conv_dw_4_bn (BatchNormaliza (None, 28, 28, 128) 512 _________________________________________________________________ conv_dw_4_relu (ReLU) (None, 28, 28, 128) 0 _________________________________________________________________ conv_pw_4 (Conv2D) (None, 28, 28, 256) 32768 _________________________________________________________________ conv_pw_4_bn (BatchNormaliza (None, 28, 28, 256) 1024 _________________________________________________________________ conv_pw_4_relu (ReLU) (None, 28, 28, 256) 0 _________________________________________________________________ conv_dw_5 (DepthwiseConv2D) (None, 28, 28, 256) 2304 _________________________________________________________________ conv_dw_5_bn (BatchNormaliza (None, 28, 28, 256) 1024 _________________________________________________________________ conv_dw_5_relu (ReLU) (None, 28, 28, 256) 0 _________________________________________________________________ conv_pw_5 (Conv2D) (None, 28, 28, 256) 65536 _________________________________________________________________ conv_pw_5_bn (BatchNormaliza (None, 28, 28, 256) 1024 _________________________________________________________________ conv_pw_5_relu (ReLU) (None, 28, 28, 256) 0 _________________________________________________________________ conv_pad_6 (ZeroPadding2D) (None, 29, 29, 256) 0 _________________________________________________________________ conv_dw_6 (DepthwiseConv2D) (None, 14, 14, 256) 2304 _________________________________________________________________ conv_dw_6_bn (BatchNormaliza (None, 14, 14, 256) 1024 _________________________________________________________________ conv_dw_6_relu (ReLU) (None, 14, 14, 256) 0 _________________________________________________________________ conv_pw_6 (Conv2D) (None, 14, 14, 512) 131072 _________________________________________________________________ conv_pw_6_bn (BatchNormaliza (None, 14, 14, 512) 2048 _________________________________________________________________ conv_pw_6_relu (ReLU) (None, 14, 14, 512) 0 _________________________________________________________________ conv_dw_7 (DepthwiseConv2D) (None, 14, 14, 512) 4608 _________________________________________________________________ conv_dw_7_bn (BatchNormaliza (None, 14, 14, 512) 2048 _________________________________________________________________ conv_dw_7_relu (ReLU) (None, 14, 14, 512) 0 _________________________________________________________________ conv_pw_7 (Conv2D) (None, 14, 14, 512) 262144 _________________________________________________________________ conv_pw_7_bn (BatchNormaliza (None, 14, 14, 512) 2048 _________________________________________________________________ conv_pw_7_relu (ReLU) (None, 14, 14, 512) 0 _________________________________________________________________ conv_dw_8 (DepthwiseConv2D) (None, 14, 14, 512) 4608 _________________________________________________________________ conv_dw_8_bn (BatchNormaliza (None, 14, 14, 512) 2048 _________________________________________________________________ conv_dw_8_relu (ReLU) (None, 14, 14, 512) 0 _________________________________________________________________ conv_pw_8 (Conv2D) (None, 14, 14, 512) 262144 _________________________________________________________________ conv_pw_8_bn (BatchNormaliza (None, 14, 14, 512) 2048 _________________________________________________________________ conv_pw_8_relu (ReLU) (None, 14, 14, 512) 0 _________________________________________________________________ conv_dw_9 (DepthwiseConv2D) (None, 14, 14, 512) 4608 _________________________________________________________________ conv_dw_9_bn (BatchNormaliza (None, 14, 14, 512) 2048 _________________________________________________________________ conv_dw_9_relu (ReLU) (None, 14, 14, 512) 0 _________________________________________________________________ conv_pw_9 (Conv2D) (None, 14, 14, 512) 262144 _________________________________________________________________ conv_pw_9_bn (BatchNormaliza (None, 14, 14, 512) 2048 _________________________________________________________________ conv_pw_9_relu (ReLU) (None, 14, 14, 512) 0 _________________________________________________________________ conv_dw_10 (DepthwiseConv2D) (None, 14, 14, 512) 4608 _________________________________________________________________ conv_dw_10_bn (BatchNormaliz (None, 14, 14, 512) 2048 _________________________________________________________________ conv_dw_10_relu (ReLU) (None, 14, 14, 512) 0 _________________________________________________________________ conv_pw_10 (Conv2D) (None, 14, 14, 512) 262144 _________________________________________________________________ conv_pw_10_bn (BatchNormaliz (None, 14, 14, 512) 2048 _________________________________________________________________ conv_pw_10_relu (ReLU) (None, 14, 14, 512) 0 _________________________________________________________________ conv_dw_11 (DepthwiseConv2D) (None, 14, 14, 512) 4608 _________________________________________________________________ conv_dw_11_bn (BatchNormaliz (None, 14, 14, 512) 2048 _________________________________________________________________ conv_dw_11_relu (ReLU) (None, 14, 14, 512) 0 _________________________________________________________________ conv_pw_11 (Conv2D) (None, 14, 14, 512) 262144 _________________________________________________________________ conv_pw_11_bn (BatchNormaliz (None, 14, 14, 512) 2048 _________________________________________________________________ conv_pw_11_relu (ReLU) (None, 14, 14, 512) 0 _________________________________________________________________ conv_pad_12 (ZeroPadding2D) (None, 15, 15, 512) 0 _________________________________________________________________ conv_dw_12 (DepthwiseConv2D) (None, 7, 7, 512) 4608 _________________________________________________________________ conv_dw_12_bn (BatchNormaliz (None, 7, 7, 512) 2048 _________________________________________________________________ conv_dw_12_relu (ReLU) (None, 7, 7, 512) 0 _________________________________________________________________ conv_pw_12 (Conv2D) (None, 7, 7, 1024) 524288 _________________________________________________________________ conv_pw_12_bn (BatchNormaliz (None, 7, 7, 1024) 4096 _________________________________________________________________ conv_pw_12_relu (ReLU) (None, 7, 7, 1024) 0 _________________________________________________________________ conv_dw_13 (DepthwiseConv2D) (None, 7, 7, 1024) 9216 _________________________________________________________________ conv_dw_13_bn (BatchNormaliz (None, 7, 7, 1024) 4096 _________________________________________________________________ conv_dw_13_relu (ReLU) (None, 7, 7, 1024) 0 _________________________________________________________________ conv_pw_13 (Conv2D) (None, 7, 7, 1024) 1048576 _________________________________________________________________ conv_pw_13_bn (BatchNormaliz (None, 7, 7, 1024) 4096 _________________________________________________________________ conv_pw_13_relu (ReLU) (None, 7, 7, 1024) 0 _________________________________________________________________ global_average_pooling2d (Gl (None, 1024) 0 _________________________________________________________________ dense (Dense) (None, 10) 10250 ================================================================= Total params: 3,239,114 Trainable params: 1,873,930 Non-trainable params: 1,365,184 _________________________________________________________________ . model.compile(optimizer=Adam(lr=0.0001), loss=&#39;categorical_crossentropy&#39;, metrics=[&#39;accuracy&#39;]) . Training . model.fit(x=train_batches, steps_per_epoch=18, validatio
…
opout(.25), tf.keras.layers.Conv2D(filters = 64, kernel_size = (3,3), activation = &#39;relu&#39;), tf.keras.layers.MaxPooling2D(2,2), tf.keras.layers.Flatten(), tf.keras.layers.Dense(128, activation=&#39;relu&#39;), tf.keras.layers.Dense(1, activation=&#39;sigmoid&#39;)] . The above model 23,963,777 trainable parameters and takes around 7 minutes to train per epoch. . model.summary() Model: &quot;sequential&quot; _________________________________________________________________ Layer (type) Output Shape Param # ================================================================= conv2d (Conv2D) (None, 222, 222, 64) 1792 _________________________________________________________________ conv2d_1 (Conv2D) (None, 220, 220, 64) 36928 _________________________________________________________________ max_pooling2d (MaxPooling2D) (None, 110, 110, 64) 0 _________________________________________________________________ dropout (Dropout) (None, 110, 110, 64) 0 _________________________________________________________________ conv2d_2 (Conv2D) (None, 108, 108, 64) 36928 _________________________________________________________________ max_pooling2d_1 (MaxPooling2 (None, 54, 54, 64) 0 _________________________________________________________________ flatten (Flatten) (None, 186624) 0 _________________________________________________________________ dense (Dense) (None, 128) 23888000 _________________________________________________________________ dense_1 (Dense) (None, 1) 129 ================================================================= Total params: 23,963,777 Trainable params: 23,963,777 Non-trainable params: 0 _________________________________________________________________ . Since the model takes around 7 minutes to train per epoch, we trained the model for only two epochs. . model.fit(x=train_batches, steps_per_epoch=len(train_batches), validation_data=valid
…
data from https://storage.googleapis.com/tensorflow/keras-applications/vgg16/vgg16_weights_tf_dim_ordering_tf_kernels.h5 553467904/553467096 [==============================] - 5s 0us/step . Now, let’s summrise the imported version of the VGG-16 Model. . vgg16_model.summary() Model: &quot;vgg16&quot; _________________________________________________________________ Layer (type) Output Shape Param # ================================================================= input_1 (InputLayer) [(None, 224, 224, 3)] 0 _________________________________________________________________ block1_conv1 (Conv2D) (None, 224, 224, 64) 1792 _________________________________________________________________ block1_conv2 (Conv2D) (None, 224, 224, 64) 36928 _________________________________________________________________ block1_pool (MaxPooling2D) (None, 112, 112, 64) 0 _________________________________________________________________ block2_conv1 (Conv2D) (None, 112, 112, 128) 73856 _________________________________________________________________ block2_conv2 (Conv2D) (None, 112, 112, 128) 147584 _________________________________________________________________ block2_pool (MaxPooling2D) (None, 56, 56, 128) 0 _________________________________________________________________ block3_conv1 (Conv2D) (None, 56, 56, 256) 295168 _________________________________________________________________ block3_conv2 (Conv2D) (None, 56, 56, 256) 590080 _________________________________________________________________ block3_conv3 (Conv2D) (None, 56, 56, 256) 590080 _________________________________________________________________ block3_pool (MaxPooling2D) (None, 28, 28, 256) 0 _________________________________________________________________ block4_conv1 (Conv2D) (None, 28, 28, 512) 1180160 _________________________________________________________________ block4_conv2 (Conv2D) (None, 28, 28, 512) 2359808 _________________________________________________________________ block4_conv3 (Conv2D) (None, 28, 28, 512) 2359808 _________________________________________________________________ block4_pool (MaxPooling2D) (None, 14, 14, 512) 0 _________________________________________________________________ block5_conv1 (Conv2D) (None, 14, 14, 512) 2359808 _________________________________________________________________ block5_conv2 (Conv2D) (None, 14, 14, 512) 2359808 _________________________________________________________________ block5_conv3 (Conv2D) (None, 14, 14, 512) 2359808 _________________________________________________________________ block5_pool (MaxPooling2D) (None, 7, 7, 512) 0 _________________________________________________________________ flatten (Flatten) (None, 25088) 0 _________________________________________________________________ fc1 (Dense) (None, 4096) 102764544 _________________________________________________________________ fc2 (Dense) (None, 4096) 16781312 _________________________________________________________________ predictions (Dense) (None, 1000) 4097000 ================================================================= Total params: 138,357,544 Trainable params: 138,357,544 Non-trainable params: 0 _________________________________________________________________ . We can see that teh VGG-16 modeel has 138,357,544 trainable parameters, but as said above, we are not going to train all of them. Instead, we are going to remove the last dense layer us
…
ctions, set rest of the layers as non-trainable and then add a sigmoid activation dense prediction layer with output shape (None, 1). . model = Sequential() for layer in vgg16_model.layers[:-1]: model.add(layer) for layer in model.layers: layer.trainable = False model.add(Dense(units=1, activation=&#39;sigmoid&#39;)) . Next, we print the summary of the model. . model.summary() Model: &quot;sequential_1&quot; _________________________________________________________________ Layer (type) Output Shape Param # ================================================================= block1_conv1 (Conv2D) (None, 224, 224, 64) 1792 _________________________________________________________________ block1_conv2 (Conv2D) (None, 224, 224, 64) 36928 _________________________________________________________________ block1_pool (MaxPooling2D) (None, 112, 112, 64) 0 _________________________________________________________________ block2_conv1 (Conv2D) (None, 112, 112, 128) 73856 _________________________________________________________________ block2_conv2 (Conv2D) (None, 112, 112, 128) 147584 _________________________________________________________________ block2_pool (MaxPooling2D) (None, 56, 56, 128) 0 _________________________________________________________________ block3_conv1 (Conv2D) (None, 56, 56, 256) 295168 _________________________________________________________________ block3_conv2 (Conv2D) (None, 56, 56, 256) 590080 _________________________________________________________________ block3_conv3 (Conv2D) (None, 56, 56, 256) 590080 _________________________________________________________________ block3_pool (MaxPooling2D) (None, 28, 28, 256) 0 _________________________________________________________________ block4_conv1 (Conv2D) (None, 28, 28, 512) 1180160 _________________________________________________________________ block4_conv2 (Conv2D) (None, 28, 28, 512) 2359808 _________________________________________________________________ block4_conv3 (Conv2D) (None, 28, 28, 512) 2359808 _________________________________________________________________ block4_pool (MaxPooling2D) (None, 14, 14, 512) 0 _________________________________________________________________ block5_conv1 (Conv2D) (None, 14, 14, 512) 2359808 _________________________________________________________________ block5_conv2 (Conv2D) (None, 14, 14, 512) 2359808 _________________________________________________________________ block5_conv3 (Conv2D) (None, 14, 14, 512) 2359808 _________________________________________________________________ block5_pool (MaxPooling2D) (None, 7, 7, 512) 0 _________________________________________________________________ flatten (Flatten) (None, 25088) 0 _________________________________________________________________ fc1 (Dense) (None, 4096) 102764544 _________________________________________________________________ fc2 (Dense) (None, 4096) 16781312 _________________________________________________________________ dense_2 (Dense) (None, 1) 4097 ================================================================= Total params: 134,264,641 Trainable params: 4,097 Non-trainable params: 134,260,544 . We observe that, only 4097 parameters are trainable. This will considerably improve the training speed along with the accuracy of the model. We will see this next. . model.fit(x=train_batches1, steps_per_epoch=len(train_batches1), validation_data=
…
s.layers.Conv2D(filters = 64, kernel_size = (3,3), activation = &#39;relu&#39;), tf.keras.layers.MaxPooling2D(2,2), tf.keras.layers.Flatten(), tf.keras.layers.Dense(128, activation=&#39;relu&#39;), tf.keras.layers.Dense(10, activation=&#39;softmax&#39;)] ) . model.compile(optimizer=&#39;adam&#39;, loss=&#39;categorical_crossentropy&#39;, metrics=[&#39;accuracy&#39;]) . model.summary() . Model: &#34;sequential&#34; _________________________________________________________________ Layer (type) Output Shape Param # ================================================================= conv2d (Conv2D) (None, 26, 26, 64) 640 _________________________________________________________________ conv2d_1 (Conv2D) (None, 24, 24, 64) 36928 _________________________________________________________________ max_pooling2d (MaxPooling2D) (None, 12, 12, 64) 0 _________________________________________________________________ dropout (Dropout) (None, 12, 12, 64) 0 _________________________________________________________________ conv2d_2 (Conv2D) (None, 10, 10, 64) 36928 _________________________________________________________________ max_pooling2d_1 (MaxPooling2 (None, 5, 5, 64) 0 _________________________________________________________________ flatten (Flatten) (None, 1600) 0 _________________________________________________________________ dense (Dense) (None, 128) 204928 _________________________________________________________________ dense_1 (Dense) (None, 10) 1290 ================================================================= Total params: 280,714 Trainable params: 280,714 Non-trainable params: 0 _________________________________________________________________ . Without Data augmentation, Validation accuracy = 98.98% . model.fit(X_train, Y_train,validation_data=(X_test, Y_test), batch_size=100, epochs=24, verbose=2) . Epoch 1/24 WARNING:tensorflow:Call
…
